…
) x = Dense(500, activation = &quot;relu&quot;, kernel_initializer = &quot;glorot_uniform&quot;)(x) decoded = Dense(17, kernel_initializer = &quot;glorot_uniform&quot;)(x) autoencoder = Model(input_df, decoded) encoder = Model(input_df, encoded) autoencoder.compile(optimizer = &quot;adam&quot;, loss = &quot;mean_squared_error&quot;) . autoencoder.summary() . Model: &#34;model&#34; _________________________________________________________________ Layer (type) Output Shape Param # ================================================================= input_1 (InputLayer) [(None, 17)] 0 dense (Dense) (None, 7) 126 dense_1 (Dense) (None, 500) 4000 dense_2 (Dense) (None, 500) 250500 dense_3 (Dense) (None, 2000) 1002000 dense_4 (Dense) (None, 10) 20010 dense_5 (Dense) (None, 2000) 22000 dense_6 (Dense) (None, 500) 1000500 dense_7 (Dense) (None, 17) 8517 ================================================================= Total params: 2,307,653 Trainable params: 2,307,653 Non-trainable params: 0 _________________________________________________________________ . autoencoder.fit(df_scaled, df_scaled, batch_size=128, epochs = 25, verbose = 1) . Epoch 1/25 70/70 [==============================] - 3s 32ms/step - loss: 0.5328 Epoch 2/25 70/70 [=========
…
